…
,{"stream_name":"stdout","time":38.786715316,"data":"\r\u001b[KDownloading https://ultralytics.com/assets/Arial.ttf to '/root/.config/Ultralytics/Arial.ttf': 100% ━━━━━━━━━━━━ 755.1KB 15.4MB/s 0.0s\n"}
,{"stream_name":"stdout","time":38.787538492,"data":"Overriding class names with single class.\n"}
,{"stream_name":"stdout","time":38.788211496,"data":"Overriding model.yaml nc=80 with nc=1\n"}
,{"stream_name":"stdout","time":38.789588845,"data":"\n"}
,{"stream_name":"stdout","time":38.789608876,"data":"                   from  n    params  module                                       arguments                     \n"}
,{"stream_name":"stdout","time":38.807580808,"data":"  0                  -1  1       464  ultralytics.nn.modules.conv.Conv             [3, 16, 3, 2]                 \n"}
,{"stream_name":"stdout","time":38.80933979,"data":"  1                  -1  1      4672  ultralytics.nn.modules.conv.Conv             [16, 32, 3, 2]                \n"}
,{"stream_name":"stdout","time":38.812358786,"data":"  2                  -1  1      6640  ultralytics.nn.modules.block.C3k2            [32, 64, 1, False, 0.25]      \n"}
,{"stream_name":"stdout","time":38.813649537,"data":"  3                  -1  1     36992  ultralytics.nn.modules.conv.Conv             [64, 64, 3, 2]                \n"}
,{"stream_name":"stdout","time":38.816701627,"data":"  4                  -1  1     26080  ultralytics.nn.modules.block.C3k2            [64, 128, 1, False, 0.25]     \n"}
,{"stream_name":"stdout","time":38.819515584,"data":"  5                  -1  1    147712  ultralytics.nn.modules.conv.Conv             [128, 128, 3, 2]              \n"}
,{"stream_name":"stdout","time":38.825762945,"data":"  6                  -1  1     87040  ultralytics.nn.modules.block.C3k2            [128, 128, 1, True]           \n"}
,{"stream_name":"stdout","time":38.828887813,"data":"  7                  -1  1    295424  ultralytics.nn.modules.conv.Conv             [128, 256, 3, 2]              \n"}
,{"stream_name":"stdout","time":38.838261278,"data":"  8                  -1  1    346112  ultralytics.nn.modules.block.C3k2            [256, 256, 1, True]           \n"}
,{"stream_name":"stdout","time":38.840981612,"data":"  9                  -1  1    164608  ultralytics.nn.modules.block.SPPF            [256, 256, 5, 3, True]        \n"}
,{"stream_name":"stdout","time":38.845671441,"data":" 10                  -1  1    249728  ultralytics.nn.modules.block.C2PSA           [256, 256, 1]                 \n"}
,{"stream_name":"stdout","time":38.848381695,"data":" 11                  -1  1         0  torch.nn.modules.upsampling.Upsample         [None, 2, 'nearest']          \n"}
,{"stream_name":"stdout","time":38.848400626,"data":" 12             [-1, 6]  1         0  ultralytics.nn.modules.conv.Concat           [1]                           \n"}
,{"stream_name":"stdout","time":38.854485089,"data":" 13                  -1  1    119808  ultralytics.nn.modules.block.C3k2            [384, 128, 1, True]           \n"}
,{"stream_name":"stdout","time":38.855428468,"data":" 14                  -1  1         0  torch.nn.modules.upsampling.Upsample         [None, 2, 'nearest']          \n"}
,{"stream_name":"stdout","time":38.857342956,"data":" 15             [-1, 4]  1         0  ultralytics.nn.modules.conv.Concat           [1]                           \n"}
,{"stream_name":"stdout","time":38.863348909,"data":" 16                  -1  1     34304  ultralytics.nn.modules.block.C3k2            [256, 64, 1, True]            \n"}
,{"stream_name":"stdout","time":38.865107506,"data":" 17                  -1  1     36992  ultralytics.nn.modules.conv.Conv             [64, 64, 3, 2]                \n"}
,{"stream_name":"stdout","time":38.865926667,"data":" 18            [-1, 13]  1         0  ultralytics.nn.modules.conv.Concat           [1]                           \n"}
,{"stream_name":"stdout","time":38.87205209,"data":" 19                  -1  1     95232  ultralytics.nn.modules.block.C3k2            [192, 128, 1, True]           \n"}
,{"stream_name":"stdout","time":38.874949007,"data":" 20                  -1  1    147712  ultralytics.nn.modules.conv.Conv             [128, 128, 3, 2]              \n"}
,{"stream_name":"stdout","time":38.875837212,"data":" 21            [-1, 10]  1         0  ultralytics.nn.modules.conv.Concat           [1]                           \n"}
,{"stream_name":"stdout","time":38.887050842,"data":" 22                  -1  1    463104  ultralytics.nn.modules.block.C3k2            [384, 256, 1, True, 0.5, True]\n"}
,{"stream_name":"stdout","time":38.912076978,"data":" 23        [16, 19, 22]  1    241566  ultralytics.nn.modules.head.Detect           [1, 1, True, [64, 128, 256]]  \n"}
,{"stream_name":"stdout","time":39.367544573,"data":"YOLO26n summary: 260 layers, 2,504,190 parameters, 2,504,190 gradients, 5.8 GFLOPs\n"}
,{"stream_name":"stdout","time":39.368321592,"data":"\n"}
,{"stream_name":"stdout","time":39.40189158,"data":"Transferred 606/708 items from pretrained weights\n"}
,{"stream_name":"stdout","time":39.462942198,"data":"\u001b[34m\u001b[1mAMP: \u001b[0mrunning Automatic Mixed Precision (AMP) checks...\n"}
…
