…
,{"stream_name":"stdout","time":36.675735449,"data":"\r\u001b[KDownloading https://ultralytics.com/assets/Arial.ttf to '/root/.config/Ultralytics/Arial.ttf': 100% ━━━━━━━━━━━━ 755.1KB 16.8MB/s 0.0s\n"}
,{"stream_name":"stdout","time":36.676415527,"data":"Overriding class names with single class.\n"}
,{"stream_name":"stdout","time":36.677172475,"data":"Overriding model.yaml nc=80 with nc=1\n"}
,{"stream_name":"stdout","time":36.677851673,"data":"\n"}
,{"stream_name":"stdout","time":36.677867838,"data":"                   from  n    params  module                                       arguments                     \n"}
,{"stream_name":"stdout","time":36.700810431,"data":"  0                  -1  1       464  ultralytics.nn.modules.conv.Conv             [3, 16, 3, 2]                 \n"}
,{"stream_name":"stdout","time":36.701908141,"data":"  1                  -1  1      4672  ultralytics.nn.modules.conv.Conv             [16, 32, 3, 2]                \n"}
,{"stream_name":"stdout","time":36.704536732,"data":"  2                  -1  1      7360  ultralytics.nn.modules.block.C2f             [32, 32, 1, True]             \n"}
,{"stream_name":"stdout","time":36.705803071,"data":"  3                  -1  1     18560  ultralytics.nn.modules.conv.Conv             [32, 64, 3, 2]                \n"}
,{"stream_name":"stdout","time":36.709905635,"data":"  4                  -1  2     49664  ultralytics.nn.modules.block.C2f             [64, 64, 2, True]             \n"}
,{"stream_name":"stdout","time":36.711139226,"data":"  5                  -1  1     73984  ultralytics.nn.modules.conv.Conv             [64, 128, 3, 2]               \n"}
,{"stream_name":"stdout","time":36.714867562,"data":"  6                  -1  2    197632  ultralytics.nn.modules.block.C2f             [128, 128, 2, True]           \n"}
,{"stream_name":"stdout","time":36.718150379,"data":"  7                  -1  1    295424  ultralytics.nn.modules.conv.Conv             [128, 256, 3, 2]              \n"}
,{"stream_name":"stdout","time":36.72345587,"data":"  8                  -1  1    460288  ultralytics.nn.modules.block.C2f             [256, 256, 1, True]           \n"}
,{"stream_name":"stdout","time":36.726461297,"data":"  9                  -1  1    164608  ultralytics.nn.modules.block.SPPF            [256, 256, 5]                 \n"}
,{"stream_name":"stdout","time":36.727399154,"data":" 10                  -1  1         0  torch.nn.modules.upsampling.Upsample         [None, 2, 'nearest']          \n"}
,{"stream_name":"stdout","time":36.728184881,"data":" 11             [-1, 6]  1         0  ultralytics.nn.modules.conv.Concat           [1]                           \n"}
,{"stream_name":"stdout","time":36.731210439,"data":" 12                  -1  1    148224  ultralytics.nn.modules.block.C2f             [384, 128, 1]                 \n"}
,{"stream_name":"stdout","time":36.731898876,"data":" 13                  -1  1         0  torch.nn.modules.upsampling.Upsample         [None, 2, 'nearest']          \n"}
,{"stream_name":"stdout","time":36.732498366,"data":" 14             [-1, 4]  1         0  ultralytics.nn.modules.conv.Concat           [1]                           \n"}
,{"stream_name":"stdout","time":36.736953718,"data":" 15                  -1  1     37248  ultralytics.nn.modules.block.C2f             [192, 64, 1]                  \n"}
,{"stream_name":"stdout","time":36.738316493,"data":" 16                  -1  1     36992  ultralytics.nn.modules.conv.Conv             [64, 64, 3, 2]                \n"}
,{"stream_name":"stdout","time":36.739431937,"data":" 17            [-1, 12]  1         0  ultralytics.nn.modules.conv.Concat           [1]                           \n"}
,{"stream_name":"stdout","time":36.742444076,"data":" 18                  -1  1    123648  ultralytics.nn.modules.block.C2f             [192, 128, 1]                 \n"}
,{"stream_name":"stdout","time":36.744946338,"data":" 19                  -1  1    147712  ultralytics.nn.modules.conv.Conv             [128, 128, 3, 2]              \n"}
,{"stream_name":"stdout","time":36.745922095,"data":" 20             [-1, 9]  1         0  ultralytics.nn.modules.conv.Concat           [1]                           \n"}
,{"stream_name":"stdout","time":36.753567641,"data":" 21                  -1  1    493056  ultralytics.nn.modules.block.C2f             [384, 256, 1]                 \n"}
,{"stream_name":"stdout","time":36.780389846,"data":" 22        [15, 18, 21]  1    751507  ultralytics.nn.modules.head.Detect           [1, 16, None, [64, 128, 256]] \n"}
,{"stream_name":"stdout","time":37.100093346,"data":"Model summary: 130 layers, 3,011,043 parameters, 3,011,027 gradients, 8.2 GFLOPs\n"}
,{"stream_name":"stdout","time":37.100909757,"data":"\n"}
,{"stream_name":"stdout","time":37.122743178,"data":"Transferred 319/355 items from pretrained weights\n"}
,{"stream_name":"stdout","time":37.166712672,"data":"Freezing layer 'model.22.dfl.conv.weight'\n"}
…
