…
,{"stream_name":"stdout","time":40.436835054,"data":"\r\u001b[KDownloading https://ultralytics.com/assets/Arial.ttf to '/root/.config/Ultralytics/Arial.ttf': 100% ━━━━━━━━━━━━ 755.1KB 19.5MB/s 0.0s\n"}
,{"stream_name":"stdout","time":40.437728185,"data":"Overriding class names with single class.\n"}
,{"stream_name":"stdout","time":40.438488014,"data":"Overriding model.yaml nc=80 with nc=1\n"}
,{"stream_name":"stdout","time":40.439240913,"data":"\n"}
,{"stream_name":"stdout","time":40.439260653,"data":"                   from  n    params  module                                       arguments                     \n"}
,{"stream_name":"stdout","time":40.454594629,"data":"  0                  -1  1       464  ultralytics.nn.modules.conv.Conv             [3, 16, 3, 2]                 \n"}
,{"stream_name":"stdout","time":40.455633476,"data":"  1                  -1  1      4672  ultralytics.nn.modules.conv.Conv             [16, 32, 3, 2]                \n"}
,{"stream_name":"stdout","time":40.460020055,"data":"  2                  -1  1      6640  ultralytics.nn.modules.block.C3k2            [32, 64, 1, False, 0.25]      \n"}
,{"stream_name":"stdout","time":40.460034527,"data":"  3                  -1  1     36992  ultralytics.nn.modules.conv.Conv             [64, 64, 3, 2]                \n"}
,{"stream_name":"stdout","time":40.463432622,"data":"  4                  -1  1     26080  ultralytics.nn.modules.block.C3k2            [64, 128, 1, False, 0.25]     \n"}
,{"stream_name":"stdout","time":40.465693329,"data":"  5                  -1  1    147712  ultralytics.nn.modules.conv.Conv             [128, 128, 3, 2]              \n"}
,{"stream_name":"stdout","time":40.471477941,"data":"  6                  -1  1     87040  ultralytics.nn.modules.block.C3k2            [128, 128, 1, True]           \n"}
,{"stream_name":"stdout","time":40.474728331,"data":"  7                  -1  1    295424  ultralytics.nn.modules.conv.Conv             [128, 256, 3, 2]              \n"}
,{"stream_name":"stdout","time":40.48576402,"data":"  8                  -1  1    346112  ultralytics.nn.modules.block.C3k2            [256, 256, 1, True]           \n"}
,{"stream_name":"stdout","time":40.488441348,"data":"  9                  -1  1    164608  ultralytics.nn.modules.block.SPPF            [256, 256, 5]                 \n"}
,{"stream_name":"stdout","time":40.4932531,"data":" 10                  -1  1    249728  ultralytics.nn.modules.block.C2PSA           [256, 256, 1]                 \n"}
,{"stream_name":"stdout","time":40.494002726,"data":" 11                  -1  1         0  torch.nn.modules.upsampling.Upsample         [None, 2, 'nearest']          \n"}
,{"stream_name":"stdout","time":40.494824915,"data":" 12             [-1, 6]  1         0  ultralytics.nn.modules.conv.Concat           [1]                           \n"}
,{"stream_name":"stdout","time":40.499271181,"data":" 13                  -1  1    111296  ultralytics.nn.modules.block.C3k2            [384, 128, 1, False]          \n"}
,{"stream_name":"stdout","time":40.499737681,"data":" 14                  -1  1         0  torch.nn.modules.upsampling.Upsample         [None, 2, 'nearest']          \n"}
,{"stream_name":"stdout","time":40.500611681,"data":" 15             [-1, 4]  1         0  ultralytics.nn.modules.conv.Concat           [1]                           \n"}
,{"stream_name":"stdout","time":40.503208531,"data":" 16                  -1  1     32096  ultralytics.nn.modules.block.C3k2            [256, 64, 1, False]           \n"}
,{"stream_name":"stdout","time":40.504586053,"data":" 17                  -1  1     36992  ultralytics.nn.modules.conv.Conv             [64, 64, 3, 2]                \n"}
,{"stream_name":"stdout","time":40.50564531,"data":" 18            [-1, 13]  1         0  ultralytics.nn.modules.conv.Concat           [1]                           \n"}
,{"stream_name":"stdout","time":40.508954636,"data":" 19                  -1  1     86720  ultralytics.nn.modules.block.C3k2            [192, 128, 1, False]          \n"}
,{"stream_name":"stdout","time":40.511302019,"data":" 20                  -1  1    147712  ultralytics.nn.modules.conv.Conv             [128, 128, 3, 2]              \n"}
,{"stream_name":"stdout","time":40.512131731,"data":" 21            [-1, 10]  1         0  ultralytics.nn.modules.conv.Concat           [1]                           \n"}
,{"stream_name":"stdout","time":40.521719881,"data":" 22                  -1  1    378880  ultralytics.nn.modules.block.C3k2            [384, 256, 1, True]           \n"}
,{"stream_name":"stdout","time":40.545476291,"data":" 23        [16, 19, 22]  1    430867  ultralytics.nn.modules.head.Detect           [1, 16, None, [64, 128, 256]] \n"}
,{"stream_name":"stdout","time":40.869868758,"data":"YOLO11n summary: 182 layers, 2,590,035 parameters, 2,590,019 gradients, 6.4 GFLOPs\n"}
,{"stream_name":"stdout","time":40.870815127,"data":"\n"}
,{"stream_name":"stdout","time":40.905624871,"data":"Transferred 448/499 items from pretrained weights\n"}
,{"stream_name":"stdout","time":40.945774666,"data":"Freezing layer 'model.23.dfl.conv.weight'\n"}
…
